…
WARNING:tensorflow:From /usr/local/lib/python3.6/dist-packages/keras/backend/tensorflow_backend.py:3445: calling dropout (from tensorflow.python.ops.nn_ops) with keep_prob is deprecated and will be removed in a future version.
Instructions for updating:
Please use `rate` instead of `keep_prob`. Rate should be set to `rate = 1 - keep_prob`.
__________________________________________________________________________________________________
Layer (type)                    Output Shape         Param #     Connected to                     
==================================================================================================
input_1 (InputLayer)            (None, 20, 11, 1)    0                                            
__________________________________________________________________________________________________
conv2d_1 (Conv2D)               (None, 20, 11, 1)    2           input_1[0][0]                    
__________________________________________________________________________________________________
conv2d_2 (Conv2D)               (None, 20, 11, 1)    10          input_1[0][0]                    
__________________________________________________________________________________________________
conv2d_3 (Conv2D)               (None, 20, 11, 1)    16          input_1[0][0]                    
__________________________________________________________________________________________________
max_pooling2d_1 (MaxPooling2D)  (None, 20, 11, 1)    0           input_1[0][0]                    
__________________________________________________________________________________________________
concatenate_1 (Concatenate)     (None, 20, 11, 4)    0           conv2d_1[0][0]                   
                                                                 conv2d_2[0][0]                   
                                                                 conv2d_3[0][0]                   
                                                                 max_pooling2d_1[0][0]            
__________________________________________________________________________________________________
max_pooling2d_2 (MaxPooling2D)  (None, 10, 5, 4)     0           concatenate_1[0][0]              
__________________________________________________________________________________________________
conv2d_4 (Conv2D)               (None, 10, 5, 1)     5           max_pooling2d_2[0][0]            
__________________________________________________________________________________________________
conv2d_5 (Conv2D)               (None, 10, 5, 1)     37          max_pooling2d_2[0][0]            
__________________________________________________________________________________________________
conv2d_6 (Conv2D)               (None, 10, 5, 1)     61          max_pooling2d_2[0][0]            
__________________________________________________________________________________________________
max_pooling2d_3 (MaxPooling2D)  (None, 10, 5, 4)     0           max_pooling2d_2[0][0]            
__________________________________________________________________________________________________
concatenate_2 (Concatenate)     (None, 10, 5, 7)     0           conv2d_4[0][0]                   
                                                                 conv2d_5[0][0]                   
                                                                 conv2d_6[0][0]                   
                                                                 max_pooling2d_3[0][0]            
__________________________________________________________________________________________________
batch_normalization_1 (BatchNor (None, 10, 5, 7)     28          concatenate_2[0][0]              
__________________________________________________________________________________________________
flatten_1 (Flatten)             (None, 350)          0           batch_normalization_1[0][0]      
__________________________________________________________________________________________________
dense_1 (Dense)                 (None, 128)          44928       flatten_1[0][0]                  
__________________________________________________________________________________________________
dropout_1 (Dropout)             (None, 128)          0           dense_1[0][0]                    
__________________________________________________________________________________________________
dense_2 (Dense)                 (None, 64)           8256        dropout_1[0][0]                  
__________________________________________________________________________________________________
dropout_2 (Dropout)             (None, 64)           0           dense_2[0][0]                    
__________________________________________________________________________________________________
dense_3 (Dense)                 (None, 3)            195         dropout_2[0][0]                  
==================================================================================================
Total params: 53,538
Trainable params: 53,524
Non-trainable params: 14
__________________________________________________________________________________________________
WARNING:tensorflow:From /usr/local/lib/python3.6/dist-packages/tensorflow/python/ops/math_ops.py:3066: to_int32 (from tensorflow.python.ops.math_ops) is deprecated and will be removed in a future version.
…
